pretrained.pth (torch_old, 504920 bytes, 44 tensors)

bn0.weight f4 [24]
0	0x3eb53d0b	0.35398135
1	0x3ede2b58	0.43392444
2	0x3cfb13d7	0.030649109
3	0x3c898699	0.016787814
4	0x3f782e51	0.96945673
5	0x3f64d348	0.8938489
6	0x3edcfc23	0.43161115
7	0x3ec46a7e	0.38362497
8	0x3ef61166	0.4806015
9	0x3dfda47f	0.12384891
10	0x3ea93eb7	0.3305566
11	0x3e911fe9	0.28344658
12	0x3b175f54	0.0023097591
13	0x3c65f9ec	0.014036637
14	0x3deaf4cf	0.11472475
15	0x3e075d5d	0.13219209
16	0x3f3b016e	0.73049057
17	0x3ea811e0	0.32826138
18	0x3d95112b	0.07278665
19	0x3dd71e8f	0.105038755
20	0x3fad8720	1.3556862
21	0x3f7ce203	0.98782367
22	0x3ed76787	0.42071173
23	0x3f2375e3	0.63851756

bn0.bias f4 [24]
0	0xb94ea672	-0.00019707697
1	0x39e94b1e	0.0004449719
2	0x38989f4b	7.2775954e-05
3	0xb7f54c47	-2.9241795e-05
4	0xb995988e	-0.00028533157
5	0x39d966c3	0.0004146603
6	0xb99ff52f	-0.0003050952
7	0x395fe2ef	0.00021351477
8	0x3863069a	5.4127166e-05
9	0x37ed77c4	2.8308372e-05
10	0xb96d582c	-0.00022634928
11	0xb9da3425	-0.0004161905
12	0xba438372	-0.00074582465
13	0xb9b3500b	-0.00034201177
14	0xb9e413b1	-0.0004350222
15	0xb8ab115d	-8.1571496e-05
16	0x3a1647c8	0.0005732742
17	0x39b153a1	0.0003382238
18	0xb90ef70e	-0.0001363421
19	0x37a6ad5d	1.986947e-05
20	0xba840827	-0.001007323
21	0xb79425d1	-1.7660584e-05
22	0xba4704de	-0.0007591973
23	0xb9429ba4	-0.00018559262

bn0.running_mean f4 [24]
0	0xc0e01380	-7.0023804
1	0xbf4f8939	-0.8106876
2	0x40437c86	3.0544753
3	0xbe58fffc	-0.211914
4	0xbd253cce	-0.04034119
5	0x40881a6b	4.253225
6	0x40437c86	3.0544753
7	0xbe58fffc	-0.211914
8	0xc0dfe20c	-6.9963436
9	0xbf4fe79b	-0.81212777
10	0x405cd55f	3.4505231
11	0xbe37e355	-0.17957814
12	0xbd3c8199	-0.04602203
13	0x40884e83	4.259584
14	0x405cd55f	3.4505231
15	0xbe37e355	-0.17957814
16	0xc0e05a59	-7.011029
17	0xbf5009c3	-0.81264895
18	0x4045278d	3.080539
19	0xbe35e51f	-0.17763184
20	0xbd529952	-0.05141575
21	0x40886bb1	4.263146
22	0x4045278d	3.080539
23	0xbe35e51f	-0.17763184

bn0.running_var f4 [24]
0	0x4157997e	13.474974
1	0x3f8c3c12	1.0955832
2	0x43ec2173	472.26132
3	0x4167d6f0	14.489975
4	0x41d06644	26.049934
5	0x4006d660	2.1068344
6	0x43ec2173	472.26132
7	0x4167d6f0	14.489975
8	0x41556996	13.338278
9	0x3f8c0c86	1.0941322
10	0x43ec7b45	472.96304
11	0x416a82e7	14.656959
12	0x41d246a7	26.284498
13	0x4006efde	2.1083903
14	0x43ec7b45	472.96304
15	0x416a82e7	14.656959
16	0x41504a7e	13.018187
17	0x3f8bad4b	1.091226
18	0x43ef861d	479.04776
19	0x416b83d9	14.719689
20	0x41d4123c	26.508904
21	0x40082b7a	2.1276536
22	0x43ef861d	479.04776
23	0x416b83d9	14.719689

fc0.weight f4 [256, 24]
0	0xbf5b6106	-0.8569492
1	0x3d1d174e	0.038352303
2	0xbe861a53	-0.2619196
3	0x3e9afe5b	0.30272183
4	0xbe102ef7	-0.14080416
5	0xbe323b64	-0.17405468
6	0xbe189f57	-0.14904533
7	0x3ea6bb94	0.32564986
8	0x3e8b2159	0.2717388
9	0x3ebd5d57	0.36985275
10	0xbe99c3b1	-0.30032113
11	0x3f345bf7	0.7045283
12	0xbe03afcf	-0.12860034
13	0xbec177aa	-0.3778661
14	0x3d376536	0.044774257
15	0x3f75e92e	0.9605893
16	0x3f13a250	0.57669544
17	0xbda41352	-0.080114976
18	0x3fcc1c30	1.5946102
19	0x3f5c14bc	0.8596914
20	0x3e068b5c	0.13139099
21	0x3e04930b	0.12946717
22	0x3f710291	0.9414454
23	0x3ee1818e	0.44044155
24	0xbd996bca	-0.07491262
25	0x3e7f2bcb	0.2491905
26	0x3ee384c2	0.44437224
27	0xbc57f4fd	-0.013180968
28	0x3d416015	0.04721077
29	0x3e0557ae	0.13021728
30	0x3edb3922	0.42817026
31	0xbeb794c9	-0.35855702
32	0xbe191890	-0.14950776
33	0xbd81cedd	-0.06338284
34	0x3eb3686e	0.3504061
35	0xbebc1166	-0.36732024
36	0xbef9a4a9	-0.48758438
37	0xbda10db3	-0.07863941
38	0xbee2d68e	-0.44304317
39	0xbe9e271f	-0.30889222
40	0xbf689ab9	-0.9086109
41	0xbe3f372f	-0.18673395
42	0xbec873a5	-0.3915073
43	0xbddb5c56	-0.10710971
44	0x3e15816c	0.14600152
45	0xbe0f2518	-0.13978994
46	0xbf2667e6	-0.65002286
47	0xbee7f15f	-0.4530134
48	0xbea81091	-0.3282514
49	0x3e01d8d1	0.12680365
50	0xbf1e02b6	-0.61722887
51	0xbd216d58	-0.03941092
52	0xbe954bcc	-0.2915939
53	0x3ed4f60d	0.41593972
54	0xbea59808	-0.32342553
55	0xbe6c4d8a	-0.23076454
56	0x3e49653e	0.19667527
57	0xbe53434d	-0.20631142
58	0x3f840b08	1.0315866
59	0xbe6887a9	-0.22708
60	0xbf02387e	-0.5086745
61	0x3e859d18	0.26096416
62	0x3ede9957	0.43476364
63	0xbe2c7579	-0.16841687
64	0x3e1f032e	0.15528557
65	0xbe6cb912	-0.23117474
66	0x3efd6d6c	0.49497545
67	0x3d853644	0.06504491
68	0x3db829b9	0.08992333
69	0x3defd516	0.11710565
70	0x3ec3cac8	0.38240647
71	0xbf478f50	-0.7795305
72	0xbe1b51e0	-0.15167952
73	0xbce57822	-0.028011385
74	0xbef20493	-0.47269115
75	0xbd5aeba3	-0.053447377
76	0xbcd642ab	-0.026154837
77	0xbea7f0f2	-0.32801014
78	0x3d288268	0.04113999
79	0x3eb6d857	0.3571193
80	0x3f286ef9	0.6579433
81	0xbdef9d84	-0.116999656
82	0x3eb85cb5	0.3600823
83	0x3fababe3	1.3411831
84	0xbee1f94c	-0.4413551
85	0x3f39a1af	0.72512335
86	0xbe822945	-0.2542211
87	0x3f9fdcd1	1.2489263
88	0xbe6e27aa	-0.23257318
89	0xbb129779	-0.0022368117
90	0xbf9b3fe8	-1.2128878
91	0x3f35bf5d	0.7099512
92	0x3e51cbed	0.20487948
93	0x3e8b8b2a	0.2725461
94	0xbee3c672	-0.4448734
95	0x3ef56708	0.4793017
96	0xbe972c5a	-0.29526025
97	0xbf194b2c	-0.5988033
98	0xbf450615	-0.76962405
99	0x3f5bcfb3	0.858638
100	0xbebcddf7	-0.36888096
101	0x3f217b07	0.6307835
102	0xbf0252b7	-0.5090746
103	0x3f3ce1b0	0.7378187
104	0x3e9c8f66	0.30578154
105	0x3d9bc823	0.076065324
106	0x3e965ac0	0.29366112
107	0x3f1ee812	0.6207286
108	0xbe059ef5	-0.13048919
109	0x3ddef4de	0.108865485
110	0xbe8fc5f1	-0.28080705
111	0x3d7dd8fe	0.061974518
112	0x3e3dcc4f	0.18534969
113	0xbe2a739a	-0.16645661
114	0xbea6c08e	-0.32568783
115	0x3e954b11	0.29158834
116	0xbd1d22b9	-0.038363192
117	0xbed7dcd2	-0.4216066
118	0xbf067c40	-0.5253334
119	0xbef4d0fc	-0.47815692
120	0x3e06946b	0.13142554
121	0xbe3cdac3	-0.18442826
122	0xbcc3e0df	-0.023910938
123	0xbe8653ec	-0.26235902
124	0x3f2e1768	0.68004465
125	0xbf340487	-0.7031941
126	0xbe937763	-0.28802022
127	0x3d0e19fc	0.03469275
128	0x3f00c905	0.5030673
129	0x3cf62b0e	0.030049827
130	0x3d555b5b	0.052089076
131	0x3f130b2e	0.57438934
132	0xbed2d8d9	-0.41181067
133	0xbea8b46a	-0.32950145
134	0x3e19ef01	0.15032579
135	0x3ed3a985	0.4134027
136	0x3e6ad221	0.2293172
137	0x3f1ac296	0.60453165
138	0xbf0e4030	-0.5556669
139	0x3edfb518	0.4369285
140	0xbeab5859	-0.3346584
141	0xbe00ba6c	-0.12571114
142	0xbee38fbf	-0.44445607
143	0x3f1104e0	0.56648064
144	0xbed2f63e	-0.41203493
145	0x3cb9724d	0.02263751
146	0xbe962f84	-0.29333127
147	0x3ef828dc	0.48468673
148	0x3ecf6300	0.40505219
149	0xbe740bad	-0.23832579
150	0x3e87e453	0.26541385
151	0x3e14cb98	0.1453079
152	0xbf4352e1	-0.7629834
153	0xbe05183c	-0.12997526
154	0x3d7990dc	0.060929164
155	0xbe443e91	-0.19164492
156	0xbee925f4	-0.45536768
157	0xbedac776	-0.42730302
158	0x3edc0c88	0.4297831
159	0x3c6aae9c	0.014323857
160	0xbf51a9e5	-0.81899863
161	0x3e78849d	0.24269338
162	0x3e99a1f9	0.30006388
163	0xbe9f4f61	-0.3111525
164	0xbee2bfdb	-0.44287
165	0x3d4da8c8	0.05020979
166	0xbd13f506	-0.036122344
167	0xbf1c0930	-0.6095152
168	0x3e063f86	0.1311017
169	0x3eb4a3d4	0.3528124
170	0xbd5fcab3	-0.05463667
171	0x3d931eb3	0.0718359
172	0xbf5c9b8f	-0.86174864
173	0xbed0ab55	-0.40755716
174	0x3dd7764a	0.10520609
175	0xbe214efa	-0.15752783
176	0xbea6d71b	-0.32585987
177	0xbee6bbc5	-0.45065132
178	0x3e8f00c6	0.27930278
179	0x3eacf666	0.33781737
180	0xbf066a28	-0.5250573
181	0x3ecb74a8	0.3973744
182	0xbe4683eb	-0.1938626
183	0x3e86de74	0.26341593
184	0xbe8af924	-0.27143204
185	0xbe9925be	-0.29911608
186	0x3eb42491	0.35184148
187	0xbe254bda	-0.16142216
188	0xbfca02e4	-1.5782132
189	0x3ee26bf4	0.44222987
190	0xbd37f0d1	-0.044907395
191	0x3d46bbb0	0.048518836
192	0x3f35ab0c	0.7096412
193	0x3e4cf308	0.20014584
194	0x3d62e5f8	0.055395097
195	0x3e818e59	0.25303915
196	0xbdb3d99e	-0.087817416
197	0xbb88b37e	-0.0041717878
198	0x3e0f0c6c	0.13969582
199	0xbe2bc666	-0.16774902
200	0x3ed67eb3	0.4189354
201	0x3f03b224	0.51443696
202	0xbeb96d4d	-0.36216202
203	0xbe29bf0a	-0.16576782
204	0xbea54d8a	-0.3228572
205	0x3da5a487	0.08088022
206	0xbed1eadb	-0.40999493
207	0xbf161843	-0.5863077
208	0xbf6ba890	-0.9205408
209	0xbe40bed2	-0.18822792
210	0xbe059bdb	-0.13047735
211	0xbe2880a9	-0.1645533
212	0xbec381b7	-0.38184902
213	0xbe7c3872	-0.24630907
214	0xbf1ee3e9	-0.62066513
215	0xbcafa86f	-0.02144262
216	0xbd8aa478	-0.06769651
217	0x3d925b35	0.071463026
218	0xbcf147db	-0.029453209
219	0x3d1a2d6b	0.03764097
220	0x3f11631b	0.5679185
221	0x3f28700a	0.6579596
222	0xbe193f00	-0.14965439
223	0x3e5337c8	0.20626748
224	0x3e3c6015	0.18396027
225	0xbdb8a3b2	-0.090155974
226	0xbe895d69	-0.2682908
227	0xbf4c32b9	-0.79764897
228	0x3ebf0782	0.37310416
229	0x3e9951c3	0.29945192
230	0x3e8835fc	0.26603687
231	0xbda4111d	-0.080110766
232	0xbe5e97e3	-0.21737628
233	0x3edba899	0.42902067
234	0xbf07e60d	-0.53085405
235	0xbe407650	-0.18795133
236	0x3fd9937b	1.6998132
237	0xbe0957ed	-0.13412447
238	0xbe905611	-0.28190663
239	0xbd4790ab	-0.04872195
240	0xbe55b53c	-0.20869917
241	0x3ec4faa2	0.38472468
242	0x3f666eb5	0.90012676
243	0xbe3e155d	-0.18562837
244	0x3e4329f1	0.19058968
245	0xbf252c80	-0.64521027
246	0x3f020e21	0.5080281
247	0xbe30c898	-0.1726402
248	0xbf20a696	-0.6275419
249	0x3f0fb621	0.5613728
250	0x3f0f0b62	0.55876744
251	0xbedc2c63	-0.43002614
252	0xbe78db66	-0.24302444
253	0xbb69e0d3	-0.0035686984
254	0x3e0e58d9	0.1390108
255	0xbf03f900	-0.5155182

fc0.bias f4 [256]
0	0x3c6b6ec1	0.0143696675
1	0xbe4cdbd6	-0.20005736
2	0x3d8a5c4a	0.06755884
3	0x39c5c58f	0.0003772196
4	0xbe097d6a	-0.13426748
5	0xbd9bb3e5	-0.076026715
6	0xbda70f3e	-0.08157204
7	0xbdbba931	-0.0916313
8	0xbd50c08e	-0.050964884
9	0x3d19e958	0.03757605
10	0xbdf08967	-0.117449574
11	0x3d529af4	0.051417306
12	0xbe2c3d35	-0.16820224
13	0x3e44da73	0.19223957
14	0xbdfa9cf4	-0.12236968
15	0x3db1a7db	0.08674594
16	0xbe0f132f	-0.13972162
17	0xbe0ea436	-0.13929829
18	0xbcf56296	-0.029954236
19	0xbdee261a	-0.11628361
20	0xbd69e1c6	-0.05710008
21	0xbdb5d5c6	-0.08878665
22	0xbd69d46c	-0.057087347
23	0xbe21911a	-0.15778008
24	0x3e4bdbd3	0.19908075
25	0x3debd852	0.11515869
26	0xbd95504f	-0.07290708
27	0x3e17cc22	0.14823964
28	0xbdba3847	-0.09092765
29	0xbe2ac2ba	-0.16675845
30	0x3d85d0f8	0.06533998
31	0xbd8fc1ea	-0.07019408
32	0x3e1d20c2	0.15344527
33	0xbd60fe0d	-0.05492978
34	0xbe2a3893	-0.16623144
35	0x3e304be1	0.17216446
36	0x3d3b1ab9	0.04567978
37	0x3d7dc72b	0.06195752
38	0xbca15caf	-0.019697515
39	0xbe26432a	-0.16236559
40	0x3d86916f	0.06570708
41	0x3a19fed9	0.0005874462
42	0xbe0a6563	-0.13515238
43	0x3dee4e6a	0.1163605
44	0xbe43bb8f	-0.19114517
45	0xbe01bfc5	-0.1267081
46	0xbd42fe1c	-0.04760562
47	0xbe43d430	-0.19123912
48	0xbe3c27c6	-0.18374547
49	0xbd7b0760	-0.06128633
50	0xbd1d8e03	-0.03846551
51	0x3e194a02	0.14969638
52	0x3dc302f8	0.095220506
53	0x3e425d12	0.18980816
54	0x3d81ced0	0.063382745
55	0x3cdfd276	0.027322035
56	0xbd214ddb	-0.03938089
57	0xbdb05633	-0.08610191
58	0xbe3b2e9c	-0.18279499
59	0xbe3ef9df	-0.18650006
60	0x3db1e5e6	0.08686428
61	0xbe045845	-0.12924297
62	0xbdab7e38	-0.08373684
63	0x3dc379ee	0.095447406
64	0xbe01455d	-0.12624116
65	0x3d9a9ba3	0.075492166
66	0xbc39f130	-0.0113490075
67	0x3d2ce22f	0.042207893
68	0xbdbe6dbf	-0.09298276
69	0x3e187777	0.14889322
70	0xbe2aebcb	-0.1669151
71	0xbe432ba4	-0.19059616
72	0x3e23166e	0.15926525
73	0xbe0d31a2	-0.13788465
74	0x3e48859a	0.19582215
75	0x3db9aeb5	0.09066526
76	0x3da15b67	0.07878762
77	0xbccf27fc	-0.02528762
78	0x3d1d452b	0.03839604
79	0x3d563d10	0.052304327
80	0xbdc48ed3	-0.09597554
81	0x3e19ff60	0.15038824
82	0x3e007749	0.12545504
83	0x3c4323ac	0.01191036
84	0x3d6f955e	0.058492057
85	0xbccb31d6	-0.024804037
86	0xbd9703c9	-0.07373769
87	0xbe211ff6	-0.15734848
88	0xbda0a5e8	-0.07844144
89	0xbe487b8d	-0.19578381
90	0xbd83ad59	-0.06429548
91	0x3ddabd52	0.10680641
92	0x3e4acdce	0.19805071
93	0xbe3f49df	-0.18680523
94	0xbe2dc7be	-0.16970727
95	0x3e2c8546	0.16847715
96	0xbd938a56	-0.0720412
97	0x398d3eb9	0.00026940348
98	0x3e03253e	0.12807176
99	0x3e392da3	0.18083815
100	0x3d9e62a9	0.07733662
101	0x3d4f08a8	0.050545365
102	0xbba1cea7	-0.004937965
103	0x3ba82732	0.0051316256
104	0x3da8ae5b	0.08236381
105	0xbe4498f0	-0.19198966
106	0xbe4a7fa8	-0.1977526
107	0x3e0ceeee	0.1376302
108	0xbe4c8dc7	-0.19975959
109	0x3ddbb216	0.107273266
110	0x3e17499d	0.14774175
111	0x3e0aa808	0.13540661
112	0x3d7f00c2	0.062256582
113	0x3cb9bd38	0.022673234
114	0x3dc10e4d	0.09426556
115	0x3df8cbee	0.121482715
116	0x3bd2e4e7	0.0064359787
117	0xbe165c69	-0.14683689
118	0x3e020e03	0.12700658
119	0x3cba19c3	0.022717362
120	0x3dfbcc7a	0.1229486
121	0xbe0bf6cb	-0.13668363
122	0xbd50dd39	-0.050992224
123	0xbe0639e5	-0.13108023
124	0x3c3efb43	0.011656585
125	0x3e319b4e	0.173444
126	0x3d1ecbc1	0.038768534
127	0x3e31a640	0.17348576
128	0x3e19956c	0.14998406
129	0xbe0fc16a	-0.14038625
130	0x3e489db8	0.19591415
131	0x3c396a26	0.011316812
132	0x3e2f05aa	0.17092004
133	0x3d2192a4	0.039446488
134	0xbd0f38d2	-0.034966297
135	0x3e3171fe	0.17328641
136	0xbe1ab748	-0.15108979
137	0x3b9611b0	0.0045797452
138	0xbcea2bd2	-0.028585348
139	0x3c176a75	0.00924169
140	0xbd6fd87a	-0.058556058
141	0x3e25f1aa	0.16205469
142	0xbc2fc580	-0.01072824
143	0x3dacbcaa	0.08434422
144	0x3db44bed	0.08803544
145	0x3e3e517e	0.18585774
146	0x3d9653ee	0.07340227
147	0xbe505319	-0.20344199
148	0xbe2d604a	-0.16931263
149	0xbe458183	-0.19287686
150	0xbe4d0118	-0.20019948
151	0xbe2de8b3	-0.16983299
152	0xbb3e28bb	-0.0029015976
153	0x3e45e3bc	0.19325155
154	0xbe0758b4	-0.13217431
155	0x3dafa75f	0.085768454
156	0xbdbec12d	-0.09314189
157	0x3e21cb52	0.15800217
158	0x3e07ec04	0.13273627
159	0x3dc23dc0	0.09484434
160	0x3e38248a	0.17982689
161	0xbe1dab0f	-0.15397285
162	0xbe317526	-0.17329845
163	0xbdd5ab79	-0.104330964
164	0x3d2988c2	0.041390188
165	0x3e38c88c	0.18045253
166	0x3e0a11cd	0.13483353
167	0x3d82b7c5	0.063827075
168	0xbd14402e	-0.03619402
169	0xbded4edf	-0.11587309
170	0x3e4fe755	0.2030309
171	0xbe36f5ba	-0.17867175
172	0xbe10358c	-0.14082927
173	0x3df6217f	0.120181076
174	0x3e22eb9e	0.15910193
175	0x3d5baa5f	0.053629275
176	0xbb7331e2	-0.003710859
177	0xbcc692c4	-0.024239905
178	0x3cd9cbef	0.0265865
179	0xbdd23658	-0.102642715
180	0x3e4ea3de	0.20179698
181	0x3e50c2b4	0.20386773
182	0xbda1c60b	-0.07899102
183	0x3e111a91	0.1417029
184	0xbd469107	-0.048478153
185	0xbe179de9	-0.14806332
186	0x3d0f9762	0.03505648
187	0xbd1fc234	-0.039003566
188	0x3e2dcfed	0.16973849
189	0x3c66c1a4	0.014084253
190	0xbd371bdc	-0.044704303
191	0xbe2614cb	-0.1621887
192	0x3e08a5e0	0.13344526
193	0x3e0b5c9c	0.13609546
194	0x3ceb5fbf	0.028732179
195	0xbc924f40	-0.017860055
196	0xbd8c053b	-0.06836935
197	0x3d41d9f5	0.047327
198	0x3e4896fa	0.19588843
199	0xbd09f303	-0.03367902
200	0x3c97ef52	0.018546734
201	0xbe471d44	-0.19444758
202	0x3d559311	0.052142207
203	0xbdb336df	-0.087507
204	0xbd464354	-0.048404053
205	0xbdddbf0b	-0.10827454
206	0x3e418ad6	0.18900618
207	0x3e0e555a	0.13899747
208	0xbdb417cc	-0.087936014
209	0xbd4cd574	-0.050008252
210	0x3d7e3fb0	0.062072456
211	0x3d9d0cdd	0.07668469
212	0xbdc4b886	-0.096055076
213	0x3da9c1a9	0.08288891
214	0x3d04b0c4	0.03239514
215	0x3df02cf3	0.117273234
216	0xbde1ecfd	-0.1103153
217	0xbe06c6bf	-0.13161753
218	0x3dc2856d	0.09498105
219	0xbc01f57f	-0.007932066
220	0xbdb6513d	-0.08902214
221	0x3e241790	0.16024613
222	0xbcbacb49	-0.022802012
223	0xbe0b6d8f	-0.13616012
224	0xbceefba4	-0.029172726
225	0xbdc1b22b	-0.09457811
226	0xbd907863	-0.07054212
227	0xbe2c3304	-0.16816336
228	0x3e26e28a	0.16297355
229	0x3e37ee27	0.17961942
230	0xbe304103	-0.172123
231	0x3e02b2db	0.1276354
232	0x3d74a224	0.05972494
233	0xbda993ae	-0.08280121
234	0xbd754021	-0.05987561
235	0x3d0df9c8	0.034662038
236	0x3d317557	0.043324795
237	0x3e3174dd	0.17329736
238	0x3e47bd81	0.19505884
239	0x3c428359	0.011872136
240	0x3e449d33	0.19200592
241	0xbdf74ede	-0.120755896
242	0x3ad9908a	0.0016598862
243	0xbe2caeac	-0.16863507
244	0x3dc839bc	0.09776637
245	0x3d26be4e	0.040708832
246	0xbdfd416d	-0.123659946
247	0xbe1f89c8	-0.15579903
248	0xbd25e307	-0.040499713
249	0xbd9dd934	-0.07707444
250	0xbdaa38d2	-0.08311619
251	0xbe360408	-0.17774975
252	0xbe052987	-0.13004123
253	0x3e2d8b13	0.16947584
254	0xbdcda8e5	-0.1004198
255	0x3daa2b4f	0.08309042

bn1.weight f4 [256]
0	0x3f03a779	0.5142742
1	0x3ea4a056	0.32153577
2	0x3f017991	0.5057612
3	0x3f358a08	0.70913744
4	0x3eea3ec0	0.45751
5	0x3eeb7a4d	0.45991746
6	0x3ef8e590	0.48612642
7	0x3f8903d5	1.0704294
8	0x3f0a6b7b	0.5407025
9	0x3fb6c2f1	1.4278241
10	0x3e82c5ba	0.25541478
11	0x3f725e12	0.9467479
12	0x3d80bbff	0.062858574
13	0x3f2a8aaf	0.66617864
14	0x3f11bfda	0.5693337
15	0x3f21e089	0.6323324
16	0x3bffa0c9	0.0078011495
17	0x3ef8c350	0.48586512
18	0x3f10ba76	0.56534517
19	0x3da475ab	0.08030256
20	0x3f2acc9f	0.66718477
21	0x3f3f24cf	0.7466554
22	0xb9e3a8e8	-0.0004342266
23	0x3efbfb57	0.49215195
24	0x3cc34fe7	0.023841811
25	0x3f7ff9b6	0.99990404
26	0x3f530209	0.8242498
27	0x3ee5cce7	0.4488289
28	0x3f07ad00	0.5299835
29	0x3f75338a	0.9578177
30	0x3f459792	0.771844
31	0x3ec86b3d	0.39144316
32	0x3f1fee9f	0.6247348
33	0x3eba9587	0.36442205
34	0x3f3217b5	0.69567424
35	0x3ebeca5a	0.37263757
36	0x3fa9b54e	1.3258455
37	0x3f44c4d9	0.76862866
38	0x3f125732	0.571643
39	0x3e47ae5c	0.19500107
40	0x3ee9ade8	0.45640492
41	0x3f02d50c	0.51106334
42	0x3e8b14f6	0.2716443
43	0x3eebcc16	0.46054143
44	0x3c21e0cc	0.009880256
45	0x3f46ae03	0.7760927
46	0x3ed756ab	0.4205831
47	0x3f66a2f0	0.9009237
48	0x3f1651b1	0.587184
49	0x3f047508	0.51741076
50	0x3e8ecf58	0.27892566
51	0x3ee085be	0.43852037
52	0x3ef463af	0.47732303
53	0x3eab21b2	0.33424145
54	0x3eefa711	0.4680715
55	0x3eebfe15	0.46092287
56	0x3f18a0a3	0.5962011
57	0x3ed78dd9	0.4210041
58	0x3eccc0fe	0.3999099
59	0x3edc22ff	0.4299545
60	0x3f2291e8	0.63503885
61	0x3e668098	0.22509992
62	0xbb0f91bb	-0.002190693
63	0x3f270e01	0.65255743
64	0x3eeb9895	0.46014848
65	0x3eea30fd	0.457405
66	0x3f2e2dc8	0.68038607
67	0x3f88cb3d	1.0687023
68	0x3ba1030c	0.0049136933
69	0x3f3c4a50	0.7355089
70	0x3f1d5bf6	0.61468446
71	0x3ee3b6aa	0.444753
72	0x3d007e4a	0.03137044
73	0x3ed5ffa6	0.41796607
74	0x3f59838a	0.8496634
75	0x3ef9749b	0.48721775
76	0x3efd6c65	0.4949676
77	0x3ef05213	0.46937618
78	0x3f4b3d95	0.7939084
79	0x3eb2f9c6	0.34956187
80	0x3efc6894	0.49298537
81	0x3f3c20b9	0.7348743
82	0x3f164fae	0.5871533
83	0x3f36d0e2	0.7141248
84	0x3edc3112	0.43006188
85	0x3f08a3bc	0.5337484
86	0x3e0e5378	0.13899028
87	0x3f281367	0.65654606
88	0x3ec4e2e0	0.38454342
89	0x3f763c13	0.96185416
90	0x3f958e0b	1.1683973
91	0x3ee49fff	0.44653317
92	0x3c7339c1	0.014845313
93	0x3f4dc512	0.8037883
94	0x3eb4a046	0.3527853
95	0x3c70f378	0.014706485
96	0x3e8e04f0	0.27738142
97	0x3efc13aa	0.49233752
98	0x3ee54d7b	0.44785675
99	0x3ee40552	0.4453531
100	0x3e290053	0.1650403
101	0x3f50a9cd	0.81509095
102	0x3f13f934	0.5780213
103	0x3f0fff15	0.562486
104	0x3ed2e694	0.41191542
105	0x3ebc2d71	0.3675342
106	0x3fa06b62	1.2532771
107	0x3f07ff06	0.5312351
108	0x3f29ee94	0.66379666
109	0x3e8e37e2	0.2777701
110	0x3f148d47	0.5802807
111	0x3f44314a	0.7663771
112	0x3f37d5ba	0.71810496
113	0x3ed7e16e	0.42164177
114	0x3e808504	0.25101483
115	0x3f3a8a33	0.72867125
116	0x3f03aa51	0.5143176
117	0x3ebbb560	0.36661816
118	0x3ebd8fa1	0.37023643
119	0x3f6e5699	0.9310089
120	0x3f121c13	0.5707409
121	0x3f401b46	0.75041616
122	0x3efda9fa	0.49543744
123	0x3f47ab87	0.77996105
124	0x3f02af5e	0.5104884
125	0x3f5c877a	0.8614422
126	0x3f099d1a	0.5375534
127	0x3ee773b3	0.4520546
128	0x3e8dca30	0.2769332
129	0x3eef9563	0.4679366
130	0x3f304eae	0.68870056
131	0x3f2a81e1	0.6660443
132	0x3ed611d1	0.41810468
133	0x3f5bc37f	0.8584518
134	0x3f57bb56	0.84270227
135	0x3b5aab0a	0.0033366107
136	0x3f5fd183	0.87429065
137	0x3f19e7d1	0.6011935
138	0x3f032cd7	0.51240295
139	0x3ee9b754	0.4564768
140	0x3ece5a84	0.40303433
141	0x3edd76cd	0.432547
142	0x3f48f487	0.7849812
143	0x3f2e75ba	0.68148386
144	0xbf017873	-0.50574416
145	0x3f7eca84	0.99527764
146	0x3f2061c8	0.626492
147	0x3ef1aae8	0.47200704
148	0x3f492e41	0.785862
149	0x3e9bbb05	0.30416122
150	0x3e8681cc	0.26270902
151	0xbb9dc616	-0.0048148734
152	0x3f2ae3b9	0.6675373
153	0x3f1fa390	0.6235895
154	0x3ef62644	0.4807607
155	0x3eb28fa6	0.3487522
156	0x3efdba8b	0.49556383
157	0x3edfc159	0.437022
158	0x3f372614	0.7154248
159	0x3b4be4bd	0.003111168
160	0x3bb0da2e	0.005397103
161	0x3f225f16	0.6342634
162	0x3f008609	0.5020452
163	0x3f1860c0	0.5952263
164	0x3ef0caa6	0.47029608
165	0x3f4525f0	0.77011013
166	0x3f5d68d2	0.8648807
167	0x3ec51113	0.3848959
168	0x3ea10c09	0.31454495
169	0x3eb422a8	0.3518269
170	0x3ef65c7a	0.4811743
171	0x3f085485	0.53253967
172	0x3f28a3c6	0.658749
173	0x3eaed33d	0.34145537
174	0x3f70e4dc	0.9409921
175	0x3ed1405b	0.40869412
176	0x3f30e4b4	0.69098973
177	0x3f11ef54	0.5700581
178	0x3c7250b4	0.014789749
179	0x3f1b8c42	0.6076089
180	0x3ea4cbce	0.3218674
181	0x3ea2c6b9	0.31792238
182	0x3ea9a9b9	0.331373
183	0x3ed79217	0.42103645
184	0x3f0aec84	0.54267144
185	0x3ea09684	0.31364834
186	0x3f3d4896	0.7393888
187	0x3e821489	0.25406292
188	0x3f24b647	0.64340633
189	0x3f3d44a9	0.7393289
190	0x3f4fe0c1	0.8120232
191	0x3ef6b6e1	0.481864
192	0x3eb7e746	0.35918635
193	0x3f14ab17	0.5807356
194	0x3eeb1078	0.45911002
195	0x3f017391	0.50566965
196	0x3f021f40	0.50828934
197	0x3f144125	0.579119
198	0xbace558d	-0.0015742049
199	0x3f48d64b	0.78451985
200	0x3f2c2ee3	0.67259043
201	0x3f3062fc	0.6890104
202	0x3f2b130c	0.6682594
203	0x3f107977	0.5643534
204	0x3f2afad3	0.6678898
205	0x3efd3b9c	0.4945954
206	0x3f072590	0.5279169
207	0x3f248fcb	0.6428191
208	0x3ec20db9	0.37901095
209	0x3ed05f18	0.4069755
210	0x3f8d91be	1.1060102
211	0x3f52618f	0.8218011
212	0x3f12ebc9	0.5739103
213	0x3ed831e7	0.42225572
214	0x3f66ed8f	0.90206236
215	0x3f4aa99b	0.7916505
216	0x3f1556e9	0.5833574
217	0x3f7f1938	0.99647856
218	0x3ef2ac21	0.4739695
219	0x3efb23d7	0.4905078
220	0x3f4aba76	0.79190767
221	0x3ec1e63e	0.37870973
222	0x3f41ac9b	0.75654
223	0x3f38f24e	0.7224473
224	0x3ed48ba9	0.41512802
225	0x3f1a160c	0.6018989
226	0x3f6e0e6b	0.9299075
227	0x3f465b84	0.7748339
228	0x3eefc771	0.4683185
229	0x3f3ac7dc	0.7296121
230	0x3f2ece03	0.682831
231	0x3f8d49f0	1.1038189
232	0x3f775643	0.96616
233	0x3f0ae05b	0.5424859
234	0x3f3f493f	0.7472114
235	0x3f01f439	0.5076328
236	0x3f0fa578	0.5611186
237	0x3eee6bae	0.46566528
238	0x3e57e195	0.21082146
239	0x3f2d712d	0.6775082
240	0x3c460ad2	0.012087541
241	0x3f34e1d7	0.70657104
242	0x3f571c6f	0.8402776
243	0x3f1646fe	0.58702075
244	0x3e6c24a1	0.23060848
245	0x3ed3a6f0	0.413383
246	0x3f010bad	0.5040844
247	0x3ef7983f	0.48358342
248	0x3ebb972f	0.3663878
249	0x3f13f098	0.5778899
250	0x3f082da2	0.5319463
251	0x3f148c22	0.58026326
252	0x3f4e0b60	0.80486107
253	0x3f497010	0.7868662
254	0x3efa43bf	0.4887981
255	0x3f647c19	0.8925186

bn1.bias f4 [256]
0	0xbf19362b	-0.5984828
1	0xbe6fe9d4	-0.23429042
2	0xbeb2c1cd	-0.34913483
3	0xbf04ee79	-0.5192638
4	0xbe8b1933	-0.27167663
5	0xbf2165ad	-0.6304577
6	0xbe3dbc73	-0.18528919
7	0xbe7b32d5	-0.2453111
8	0xbe1851c6	-0.14874944
9	0x3b1bb62e	0.002375971
10	0xbe9329dd	-0.28742877
11	0xbe7980be	-0.24365517
12	0xbe87294c	-0.26398695
13	0xbd90217e	-0.07037638
14	0xbe1a7e5f	-0.15087269
15	0xbf171db0	-0.59029675
16	0xbd403ef2	-0.04693503
17	0xbe8ce39f	-0.2751741
18	0xbef96dac	-0.48716486
19	0xbed26524	-0.4109279
20	0xbe9200be	-0.2851619
21	0xbf3bccb4	-0.7335923
22	0xbd616945	-0.055032033
23	0xbeaaccff	-0.33359525
24	0xbdc72f99	-0.097258754
25	0xbed0ac45	-0.4075643
26	0xbf0255fb	-0.50912446
27	0xbe02cf3b	-0.12774365
28	0xbe489afb	-0.1959037
29	0xbeef7dd8	-0.467757
30	0xbf236caf	-0.63837713
31	0xbea7329c	-0.326558
32	0x3c1fbcee	0.009749634
33	0xbf1095f1	-0.5647879
34	0xbed50bb8	-0.41610503
35	0xbe535aa4	-0.20640045
36	0xbe86e064	-0.2634307
37	0xbeda1f0e	-0.42601818
38	0xbf0c6b8e	-0.54851615
39	0x3d53b0e6	0.051682375
40	0xbefb68fd	-0.49103537
41	0xbe1f8fde	-0.15582225
42	0xbe3e9ae0	-0.18613768
43	0xbe510532	-0.20412138
44	0xbd26e3ca	-0.04074458
45	0xbee730ca	-0.4515441
46	0xbe93fa0a	-0.28901702
47	0xbe9175d8	-0.2841022
48	0xbee9f977	-0.4569814
49	0x39605587	0.00021394166
50	0xbea4c0c4	-0.32178319
51	0xbe272a02	-0.16324618
52	0xbe856043	-0.26050004
53	0xbdd3ef51	-0.1034838
54	0xbe818f22	-0.25304514
55	0xbec35fc3	-0.38158998
56	0xbea7cabb	-0.3277186
57	0xbec1704f	-0.37780997
58	0xbea2d6b6	-0.31804436
59	0xbe8ad88b	-0.27118334
60	0xbf37e3c5	-0.71831924
61	0xbe00eb16	-0.12589678
62	0xbc231684	-0.009954099
63	0xbdfe6304	-0.124212295
64	0xbe7c31c0	-0.24628353
65	0x3cd41788	0.025890127
66	0xbea84ad0	-0.32869577
67	0xbea772d9	-0.3270481
68	0xbc7e981f	-0.015539198
69	0xbf499ac1	-0.7875176
70	0xbf0946dc	-0.5362375
71	0xbf01adec	-0.5065601
72	0xbe1d712a	-0.153752
73	0xbe4f4df1	-0.20244576
74	0xbe09e779	-0.13467206
75	0xbea6f5ff	-0.32609555
76	0xbedc8839	-0.4307268
77	0xbefc56ac	-0.49284875
78	0xbee9d5d3	-0.45670947
79	0xbe9c9fcf	-0.30590674
80	0xbed1e487	-0.40994665
81	0xbe8fb9d3	-0.2807146
82	0xbea2683c	-0.3172015
83	0xbf24823a	-0.6426121
84	0xbda2d0c6	-0.079499766
85	0xbefc60a5	-0.49292484
86	0xbe77d906	-0.24203882
87	0xbe5ee1bd	-0.217658
88	0xbeac0254	-0.33595526
89	0xbeae8d60	-0.34092236
90	0xbedf7d8d	-0.43650475
91	0xbeda78dd	-0.42670336
92	0xbe26380f	-0.16232322
93	0xbea3f51e	-0.32022947
94	0xbe5255e1	-0.20540573
95	0xbd79b524	-0.060963765
96	0xbe812cad	-0.25229397
97	0xbee359b2	-0.4440437
98	0xbe918088	-0.28418374
99	0xbe2412d8	-0.16022813
100	0xbceb792f	-0.028744308
101	0xbf583602	-0.8445741
102	0xbf20c9be	-0.62807834
103	0xbeed48a9	-0.46344498
104	0xbf036af4	-0.5133507
105	0xbeab5c07	-0.3346865
106	0xbdf03969	-0.117297
107	0xbeaa5f72	-0.33275944
108	0xbea46666	-0.32109374
109	0xbf09ae65	-0.5378173
110	0xbea0ece2	-0.31430727
111	0x3e3db059	0.18524303
112	0xbdee04d2	-0.11622013
113	0xbe4ea894	-0.20181495
114	0xbe8f0c86	-0.27939242
115	0xbf0e1620	-0.5550251
116	0xbed9c703	-0.42534646
117	0xbea06fff	-0.31335446
118	0xbecc3789	-0.3988612
119	0xbe58093a	-0.2109727
120	0xbf25e16e	-0.64797103
121	0xbe906072	-0.28198582
122	0xbf03d869	-0.5150209
123	0xbef30639	-0.47465685
124	0xbf074d83	-0.5285265
125	0xbe09de11	-0.13463618
126	0xbec21379	-0.3790548
127	0xbf1d4350	-0.61430836
128	0xbda71955	-0.081591286
129	0xbe8ca601	-0.274704
130	0xbee60845	-0.44928184
131	0xbed09626	-0.40739554
132	0xbe08d432	-0.13362196
133	0xbefd6238	-0.49488997
134	0xbf0980a0	-0.5371189
135	0xbcd74a33	-0.026280498
136	0xbe5cdf3f	-0.21569537
137	0xbef26960	-0.4734602
138	0xbf09da71	-0.5384894
139	0xbf0daa24	-0.5533774
140	0xbee6c38a	-0.4507106
141	0xbee480d7	-0.44629547
142	0xbea2731a	-0.3172844
143	0xbe83c3eb	-0.2573541
144	0xbddcbde5	-0.10778407
145	0xbea4779c	-0.32122505
146	0xbf007cdb	-0.50190514
147	0xbf1314cb	-0.574536
148	0xbf12a8bd	-0.57288724
149	0xbe310e96	-0.1729072
150	0x3dee64a9	0.11640293
151	0x3e100ebf	0.14068125
152	0xbf33be9f	-0.7021274
153	0xbea1d35e	-0.31606573
154	0xbe9745a7	-0.29545328
155	0xbe3dc4a5	-0.18532045
156	0xbea1cc05	-0.31600967
157	0xbefd681f	-0.494935
158	0xbf0e353b	-0.55549973
159	0xbc781159	-0.015140855
160	0xbcbb2497	-0.022844596
161	0xbe4f3419	-0.20234717
162	0xbe7c1f29	-0.24621262
163	0xbe6d402c	-0.23169011
164	0xbe8e8b54	-0.27840674
165	0xbe853d26	-0.26023215
166	0xbebe6472	-0.3718601
167	0xbe089da3	-0.13341384
168	0xbe1109d9	-0.14163913
169	0xbe5f5230	-0.21808696
170	0xbecfec67	-0.40610048
171	0xbe2b5041	-0.16729833
172	0xbed3bb9c	-0.41354072
173	0xbd8f84ca	-0.070077494
174	0xbe56a2b7	-0.20960508
175	0x3d793ed7	0.060850944
176	0xbe965857	-0.29364273
177	0xbed9777b	-0.4247397
178	0xbd6085f7	-0.05481526
179	0xbecd1cbc	-0.40060985
180	0xbe5ccd46	-0.2156268
181	0xbe45ca80	-0.19315529
182	0xbde16a04	-0.11006549
183	0xbec2972b	-0.38005957
184	0xbeffe2b7	-0.49977657
185	0xbea0f213	-0.31434688
186	0xbea062e7	-0.31325457
187	0xbea635f8	-0.3246305
188	0xbf1162b1	-0.56791216
189	0xbe4c8af7	-0.19974886
190	0xbf0e3ac2	-0.5555841
191	0xbe98fe1b	-0.29881367
192	0xbe4da8d1	-0.2008393
193	0xbed14e45	-0.40880027
194	0xbf20ddda	-0.6283852
195	0xbea44077	-0.32080433
196	0xbed494df	-0.4151983
197	0xbec9dd4a	-0.39426643
198	0xbdaee3b4	-0.08539525
199	0xbf0815bc	-0.53158164
200	0xbde4d6fe	-0.11173819
201	0xbe9d1595	-0.30680528
202	0xbeabeebe	-0.33580583
203	0xbe45c41d	-0.19313093
204	0xbef04f7e	-0.46935648
205	0xbe991d50	-0.29905176
206	0xbe17b41b	-0.14814799
207	0xbeba83e8	-0.3642876
208	0xbe56d1b1	-0.20978428
209	0xbe5b97da	-0.21444646
210	0xbe3ae770	-0.18252349
211	0xbee4ee8b	-0.44713244
212	0xbeba5c88	-0.3639872
213	0xbeced493	-0.40396556
214	0xbf007eeb	-0.5019366
215	0xbf4bd0c3	-0.7961542
216	0xbe87d7f5	-0.2653195
217	0xbeae6467	-0.34060976
218	0xbeaf7b58	-0.3427379
219	0xbe9d5d01	-0.3073502
220	0xbe7c1896	-0.24618754
221	0xbee38047	-0.44433805
222	0xbeca55b6	-0.39518517
223	0xbeb12bac	-0.34603631
224	0xbe8e48f5	-0.27790037
225	0xbeafd8c2	-0.3434506
226	0xbe424b55	-0.1897405
227	0xbf105602	-0.5638124
228	0xbea95ac0	-0.3307705
229	0xbf4d7aa0	-0.80265236
230	0xbe81d009	-0.2535403
231	0xbf01ade9	-0.5065599
232	0xbef89096	-0.4854781
233	0xbebb890b	-0.36627993
234	0xbf37b6f6	-0.7176355
235	0xbe928ac2	-0.2862149
236	0xbeb4ee93	-0.35338268
237	0xbeef29ab	-0.46711478
238	0xbe29475e	-0.1653113
239	0xbf0e0bc2	-0.5548669
240	0xbd9bc636	-0.07606165
241	0xbec351f9	-0.38148478
242	0xbf08062e	-0.5313443
243	0xbedf898e	-0.43659633
244	0xbdd34de9	-0.103175946
245	0xbe451e91	-0.19249941
246	0xbe929581	-0.28629687
247	0xbed20f81	-0.41027454
248	0xbeec45ba	-0.46146947
249	0xbeca3991	-0.39497045
250	0xbecd7368	-0.4012711
251	0xbf1b155e	-0.6057948
252	0xbf123486	-0.57111394
253	0xbf35e49a	-0.71051943
254	0xbdfac8ab	-0.12245306
255	0xbf23e9ec	-0.6402881

bn1.running_mean f4 [256]
0	0x3c608820	0.01370433
1	0xbe4c46fd	-0.19948955
2	0x3d8a85c9	0.06763799
3	0xb9093060	-0.00013083359
4	0xbe0890ef	-0.13336538
5	0xbd9a7d67	-0.0754345
6	0xbda681d6	-0.08130233
7	0xbdb88f2c	-0.09011683
8	0xbd4d7540	-0.050160646
9	0x3d14cfaf	0.036330875
10	0xbdf1403f	-0.11779832
11	0x3d581c9e	0.052761666
12	0xbe2ba23b	-0.16761105
13	0x3e44a4a9	0.19203438
14	0xbdfa6ddd	-0.12227986
15	0x3db16a89	0.08662898
16	0xbe0e93bb	-0.13923542
17	0xbe0e5424	-0.13899285
18	0xbcf0e469	-0.02940579
19	0xbded89ac	-0.115985245
20	0xbd6c5982	-0.05770255
21	0xbdb4d991	-0.0883056
22	0xbd6c3ae8	-0.057673365
23	0xbe2293a1	-0.15876628
24	0x3e4b983a	0.19882289
25	0x3dece994	0.11567989
26	0xbd9914c6	-0.07474665
27	0x3e1a021a	0.15039864
28	0xbdb99d21	-0.09063173
29	0xbe29e703	-0.1659203
30	0x3d84b6a5	0.06480149
31	0xbd8f0dcf	-0.06985056
32	0x3e1c3dcf	0.15257953
33	0xbd60476d	-0.054755617
34	0xbe2aa532	-0.1666458
35	0x3e30230e	0.17200872
36	0x3d44efbf	0.048080202
37	0x3d7d3104	0.061814323
38	0xbc9e2775	-0.019305924
39	0xbe267674	-0.16256124
40	0x3d878d71	0.06618775
41	0x35bece52	1.421615e-06
42	0xbe08bc98	-0.13353193
43	0x3df0b4a4	0.117532045
44	0xbe458e4e	-0.19292566
45	0xbe00a5ba	-0.1256322
46	0xbd438b5a	-0.047740318
47	0xbe40cdd4	-0.18828517
48	0xbe3c990f	-0.18417762
49	0xbd7a5a03	-0.061120998
50	0xbd19ee7a	-0.037580945
51	0x3e1a1ca2	0.15049985
52	0x3dc1a8de	0.09456037
53	0x3e41c48d	0.18922634
54	0x3d834789	0.064101286
55	0x3cd3a9b7	0.025837762
56	0xbd1f94f1	-0.0389604
57	0xbdb0a0df	-0.08624434
58	0xbe3c94db	-0.18416159
59	0xbe3fd841	-0.18734838
60	0x3db109fc	0.086444825
61	0xbe034793	-0.12820272
62	0xbdab960c	-0.083782285
63	0x3dc2c026	0.09509306
64	0xbe011a5a	-0.12607709
65	0x3d98f0a8	0.074677765
66	0xbc4e74db	-0.012601103
67	0x3d242c6a	0.04008142
68	0xbdbd3922	-0.09239413
69	0x3e18d64e	0.14925501
70	0xbe2b5979	-0.1673335
71	0xbe4226f4	-0.18960172
72	0x3e23cd54	0.15996295
73	0xbe0d2945	-0.13785274
74	0x3e483829	0.19552673
75	0x3db8be09	0.09020621
76	0x3d9f5ee0	0.07781768
77	0xbcc62a77	-0.02419017
78	0x3d207e47	0.039182927
79	0x3d56f679	0.05248115
80	0xbdc63db7	-0.0967974
81	0x3e19a657	0.1500486
82	0x3e00b434	0.12568742
83	0x3c4a29ad	0.012339038
84	0x3d6e39f5	0.05816074
85	0xbcd53f77	-0.026031239
86	0xbd960a57	-0.07326191
87	0xbe20924b	-0.15680806
88	0xbd9e84a3	-0.07740142
89	0xbe495e66	-0.19664916
90	0xbd8462b2	-0.06464137
91	0x3dd6d236	0.10489313
92	0x3e4a7f9a	0.19775239
93	0xbe3d5504	-0.18489462
94	0xbe2e133f	-0.1699953
95	0x3e2d1108	0.16901028
96	0xbd96345e	-0.07334207
97	0x39f9f8cf	0.00047678358
98	0x3e0252b5	0.12726863
99	0x3e3a464d	0.1819088
100	0x3d9adc4e	0.07561551
101	0x3d4ca5b8	0.04996273
102	0xbb82c64f	-0.0039909254
103	0x3ba93f62	0.0051650265
104	0x3da7b007	0.081878714
105	0xbe4558c2	-0.1927214
106	0xbe4b5b07	-0.19858943
107	0x3e0affdd	0.13574167
108	0xbe4c1d01	-0.19932939
109	0x3ddd4515	0.10804192
110	0x3e15e867	0.14639436
111	0x3e0c2d78	0.1368922
112	0x3d801dcc	0.06255683
113	0x3cb57297	0.022149367
114	0x3dc063c4	0.09394029
115	0x3df53b8c	0.11974248
116	0x3bfac3ea	0.0076527493
117	0xbe175565	-0.14778669
118	0x3e021899	0.12704696
119	0x3cbdac92	0.023153577
120	0x3dfd6334	0.12372437
121	0xbe0c7dc1	-0.13719846
122	0xbd52d5d0	-0.05147344
123	0xbe04b607	-0.12960063
124	0x3c21104b	0.009830545
125	0x3e328edd	0.1743731
126	0x3d1bd5ae	0.038045578
127	0x3e31022c	0.17285985
128	0x3e193926	0.14963207
129	0xbe0e76b1	-0.13912465
130	0x3e481ea0	0.19542933
131	0x3c3db274	0.011578191
132	0x3e2e54c2	0.1702452
133	0x3d1d2222	0.03836263
134	0xbd0cb4e3	-0.034352195
135	0x3e315b89	0.17320074
136	0xbe19d598	-0.15022886
137	0x3b9a7f1d	0.00471486
138	0xbcf69952	-0.030102406
139	0x3c22ce2f	0.009936853
140	0xbd6be0b1	-0.05758733
141	0x3e25bb5a	0.1618475
142	0xbc29caf7	-0.010363332
143	0x3dab7757	0.08372372
144	0x3db26b1a	0.08711834
145	0x3e3f68a7	0.18692265
146	0x3d98e933	0.07466354
147	0xbe4ef445	-0.20210369
148	0xbe2dab00	-0.16959763
149	0xbe455ebf	-0.19274424
150	0xbe4d720d	-0.20063038
151	0xbe2de5a9	-0.1698214
152	0xbb3edb62	-0.0029122462
153	0x3e45a9b6	0.19303021
154	0xbe08456c	-0.13307732
155	0x3db2ce2b	0.0873073
156	0xbdbe35ad	-0.092875816
157	0x3e21cbea	0.15800443
158	0x3e082f2c	0.13299245
159	0x3dc356eb	0.09538063
160	0x3e378bae	0.17924377
161	0xbe1ee06a	-0.15515295
162	0xbe304bb2	-0.17216375
163	0xbdd91b80	-0.10600948
164	0x3d30b6e3	0.043143164
165	0x3e38d126	0.18048534
166	0x3e0b55ba	0.13606921
167	0x3d815847	0.06315666
168	0xbd13385a	-0.035942413
169	0xbded806a	-0.11596759
170	0x3e51af60	0.20477057
171	0xbe3740c9	-0.17895807
172	0xbe0e7776	-0.13912758
173	0x3df35a71	0.11882485
174	0x3e249d28	0.16075575
175	0x3d5b5597	0.05354842
176	0xbb48ee71	-0.00306597
177	0xbcc60b61	-0.024175348
178	0x3cd5ff30	0.02612266
179	0xbdd11474	-0.10208979
180	0x3e4f7b0b	0.20261781
181	0x3e515b6f	0.20445035
182	0xbda1f46f	-0.0790795
183	0x3e112f44	0.14178187
184	0xbd45f795	-0.048331816
185	0xbe184386	-0.14869508
186	0x3d134d7c	0.035962567
187	0xbd1968ce	-0.037453465
188	0x3e2f8436	0.17140278
189	0x3c61c54a	0.0137799475
190	0xbd398e0f	-0.045301493
191	0xbe254ff0	-0.16143775
192	0x3e08646e	0.13319561
193	0x3e0b7636	0.13619313
194	0x3cf3cd6d	0.02976104
195	0xbc842f8a	-0.01613595
196	0xbd8d61ad	-0.06903396
197	0x3d420454	0.04736741
198	0x3e49eb0c	0.1971857
199	0xbd083c29	-0.0332605
200	0x3c98bde4	0.018645234
201	0xbe494c57	-0.19658028
202	0x3d535067	0.05159035
203	0xbdb39a31	-0.08769644
204	0xbd49fcd9	-0.0493134
205	0xbddf2d16	-0.10897271
206	0x3e4199a1	0.18906261
207	0x3e0d97c6	0.13827428
208	0xbdb61dde	-0.088924155
209	0xbd4aaaf5	-0.049479444
210	0x3d7ffe71	0.062498514
211	0x3d9b3d0a	0.07580002
212	0xbdc58a37	-0.09645503
213	0x3da83a8c	0.08214292
214	0x3d029a03	0.03188516
215	0x3deebd4f	0.116572015
216	0xbde2a65b	-0.11066886
217	0xbe07068e	-0.13186094
218	0x3dc3298b	0.09529408
219	0xbbf0fa34	-0.0073540453
220	0xbdb6e365	-0.08930091
221	0x3e24e4d5	0.16102917
222	0xbcc025b5	-0.02345548
223	0xbe0b3e8b	-0.13598077
224	0xbcf0c3a5	-0.029390166
225	0xbdc0a317	-0.09406107
226	0xbd94063e	-0.07227753
227	0xbe2cb51c	-0.16865963
228	0x3e275c6d	0.16343851
229	0x3e3937fd	0.18087764
230	0xbe300d76	-0.17192635
231	0x3e02dce5	0.12779577
232	0x3d79b2a4	0.06096138
233	0xbda6e4de	-0.08149122
234	0xbd78d67e	-0.06075143
235	0x3d0d9d60	0.034573913
236	0x3d354846	0.04425838
237	0x3e32b1ea	0.17450681
238	0x3e484fca	0.19561687
239	0x3c34ba60	0.011030763
240	0x3e440070	0.19140792
241	0xbdf1fabc	-0.11815402
242	0x3aaaf623	0.0013043325
243	0xbe2d5d46	-0.16930112
244	0x3dc919ee	0.09819399
245	0x3d2814bb	0.041035395
246	0xbdfa7005	-0.12228397
247	0xbe1f4a91	-0.15555789
248	0xbd22f825	-0.03978743
249	0xbd9ad168	-0.07559472
250	0xbdaa5923	-0.08317783
251	0xbe361e41	-0.17784978
252	0xbe060a22	-0.13089803
253	0x3e2d5bf1	0.16929604
254	0xbdcc546f	-0.09977042
255	0x3da7f0b6	0.08200209

bn1.running_var f4 [256]
0	0x3f767b5f	0.96282
1	0x3f2267a9	0.6343942
2	0x3f55ee09	0.8356634
3	0x3f64dbc2	0.89397824
4	0x3f16fbf6	0.5897821
5	0x3f5d8ead	0.8654583
6	0x3f9059b3	1.1277374
7	0x411658e9	9.396707
8	0x3f89c26e	1.076246
9	0x4102853f	8.157531
10	0x3f8a7166	1.0815856
11	0x3fef856a	1.871259
12	0x3f3daab4	0.740886
13	0x3f3414d3	0.70344275
14	0x4014d95a	2.325766
15	0x3ede5c3c	0.43429744
16	0x3e946935	0.28986517
17	0x3f960a45	1.1721884
18	0x3f3f9a5a	0.74844897
19	0x3ed1a275	0.40944257
20	0x3f62b15b	0.8855187
21	0x3f587910	0.84559727
22	0x3f269be6	0.6508163
23	0x400382d3	2.0548599
24	0x3ef6cf99	0.4820526
25	0x4023d070	2.559597
26	0x3f15c64c	0.585057
27	0x40aa0bfc	5.313963
28	0x3f86f1e4	1.0542569
29	0x3f092454	0.5357106
30	0x3f950b60	1.1644096
31	0x3f920e07	1.1410531
32	0x402ef496	2.7336783
33	0x3f3ff8b7	0.74988884
34	0x3ff5018f	1.9141101
35	0x405b107b	3.422881
36	0x4125065b	10.314052
37	0x3f966d1e	1.175205
38	0x3f56d851	0.8392382
39	0x3f3af867	0.7303528
40	0x3f37f71d	0.7186144
41	0x4005e6c6	2.0922103
42	0x3f78c109	0.9716955
43	0x400f197d	2.2359307
44	0x3ed58e53	0.41710147
45	0x40407f98	3.0077877
46	0x401025eb	2.2523143
47	0x415aa561	13.665376
48	0x3fed5ae3	1.8543361
49	0x3f865b5f	1.0496634
50	0x3ff22cf6	1.8919971
51	0x3f533879	0.82508045
52	0x3f869602	1.0514529
53	0x406b9a52	3.681294
54	0x3f21423d	0.62991697
55	0x3f4c2487	0.79743236
56	0x4047e1a3	3.1231468
57	0x3fe27876	1.7693012
58	0x3f959859	1.1687118
59	0x3fb0b7e4	1.3806119
60	0x3f3b5bc7	0.73186916
61	0x3f3a5cb5	0.7279771
62	0x3f135a0a	0.57559264
63	0x403e2d8d	2.9715302
64	0x3ed0ca53	0.4077936
65	0x3fffddee	1.9989603
66	0x3fe88df8	1.8168325
67	0x401dad3b	2.4636981
68	0x3f1c2e75	0.6100839
69	0x3f21d731	0.6321898
70	0x401b6571	2.4280665
71	0x3efceb27	0.49398157
72	0x3fa01571	1.2506543
73	0x3f9e1445	1.2349936
74	0x3f113454	0.5672047
75	0x3fbfbb6e	1.4979074
76	0x4005bfa5	2.089822
77	0x3fd61a10	1.6726704
78	0x3f106450	0.56403065
79	0x3f336346	0.70073354
80	0x3f175017	0.5910658
81	0x3f119068	0.5686097
82	0x3fe9c79c	1.8264041
83	0x3f31786b	0.6932437
84	0x3f6400d5	0.8906377
85	0x3fc4fcfb	1.5389704
86	0x3f705c41	0.9389077
87	0x3f80f9d4	1.0076241
88	0x40423c03	3.0349128
89	0x3ee5f68a	0.44914657
90	0x3fb4abc0	1.4114914
91	0x3fc65ba4	1.5496716
92	0x3ebe9372	0.37221867
93	0x3fde0cb8	1.7347631
94	0x3f408318	0.75200033
95	0x3ebfd43c	0.3746661
96	0x3f378512	0.71687424
97	0x3f62b548	0.88557863
98	0x3fc9d85d	1.5769154
99	0x3f3ebc7b	0.7450635
100	0x3f64189a	0.8910004
101	0x3f174009	0.59082085
102	0x3ffd28f0	1.9778118
103	0x3fd97013	1.6987327
104	0x3f37183b	0.7152135
105	0x3f6ba9a7	0.92055744
106	0x3f77b775	0.9676431
107	0x3f4355f9	0.7630306
108	0x3fa12f16	1.2592494
109	0x4039ce30	2.9032097
110	0x3f639f3e	0.8891486
111	0x3ffadfca	1.9599545
112	0x3ef48086	0.47754306
113	0x3fb3e3c6	1.4053886
114	0x3fadb893	1.3571953
115	0x3ed1e1e4	0.40992653
116	0x3f967e03	1.1757206
117	0x3f1958eb	0.59901303
118	0x3fe0b291	1.7554494
119	0x3ffcba39	1.9744331
120	0x3f935e8b	1.1513227
121	0x40587eb1	3.3827326
122	0x3f7f3eef	0.99705404
123	0x3f3c0fa2	0.73461354
124	0x3f698d92	0.91231644
125	0x40511634	3.2669802
126	0x3ff95126	1.947789
127	0x3fabf53d	1.3434216
128	0x3f327cb1	0.69721514
129	0x3ff6d71c	1.9284396
130	0x3f6d59a7	0.92714924
131	0x3f4d8bb0	0.8029127
132	0x3f86837d	1.0508877
133	0x3f27d443	0.6555826
134	0x40656049	3.5840018
135	0x3f7d277b	0.9888837
136	0x4082c627	4.0866885
137	0x3f9b0ce0	1.2113304
138	0x3fd0e108	1.6318674
139	0x3f908c7f	1.1292876
140	0x3f49f3b6	0.788875
141	0x3fcadfd9	1.5849563
142	0x3f1704da	0.5899178
143	0x3f102093	0.56299704
144	0x3ee772ef	0.45204875
145	0x401d2d29	2.4558814
146	0x3fd0b9d5	1.6306711
147	0x3f107e01	0.56442267
148	0x3f013f7d	0.504875
149	0x3fbca194	1.473681
150	0x3f0e9fbf	0.55712503
151	0x3f2e0e67	0.67990726
152	0x3f34d2e8	0.7063432
153	0x3f5597e6	0.83434904
154	0x3f0e47f5	0.5557855
155	0x3ee1048e	0.43948787
156	0x3f8989ba	1.0745156
157	0x3f66ccf9	0.90156513
158	0x3f9c541f	1.2213172
159	0x3f518142	0.81837857
160	0x3f241fad	0.64110833
161	0x3f238a7f	0.63883203
162	0x4087882c	4.2353725
163	0x40133e97	2.3006952
164	0x3ff83198	1.9390135
165	0x3fec30d0	1.8452396
166	0x4064304e	3.5654483
167	0x400f5e17	2.2401178
168	0x3f82384f	1.0173434
169	0x3f9c371e	1.220432
170	0x3f4661e5	0.77493125
171	0x40980568	4.75066
172	0x40457542	3.0852818
173	0x3f1f5ed5	0.6225408
174	0x4055acfc	3.3386831
175	0x3eeff697	0.4686782
176	0x3f2f547b	0.6848828
177	0x3ed72d4e	0.42026752
178	0x3f33f227	0.7029137
179	0x3f180145	0.5937694
180	0x40414e96	3.0204215
181	0x3fa5c530	1.2950802
182	0x3f8bccd5	1.0921885
183	0x3f1a371d	0.60240346
184	0x3f72cf10	0.948472
185	0x3fc272da	1.51913
186	0x405b5361	3.426964
187	0x3fc4d1da	1.5376542
188	0x40236dd3	2.5535781
189	0x3edd5858	0.43231463
190	0x3fa11560	1.2584648
191	0x3f82ef41	1.0229264
192	0x3f53d8a6	0.82752454
193	0x3f51bfa5	0.8193305
194	0x3fca4030	1.5800838
195	0x3ef10d8a	0.47080642
196	0x3fd085f8	1.6290884
197	0x3ebeb0ab	0.37244162
198	0x3fda2f70	1.7045727
199	0x3f720362	0.9453641
200	0x3f9353aa	1.1509907
201	0x3fcc56dd	1.5964009
202	0x400d701a	2.2099671
203	0x3ecee002	0.4040528
204	0x402196dc	2.5248327
205	0x3f807fb8	1.0038977
206	0x3fb06366	1.3780334
207	0x3f575ae2	0.8412305
208	0x3fbe6fd6	1.487788
209	0x4099bc29	4.804219
210	0x40297efd	2.6483757
211	0x3fc56970	1.5422802
212	0x3fa0815c	1.2539477
213	0x3f8114c0	1.0084457
214	0x3fa3da15	1.2800928
215	0x3fb0a9b8	1.3801794
216	0x3f4e947d	0.80695325
217	0x3fc07f0d	1.5038773
218	0x3f60dec5	0.8783992
219	0x3f502e33	0.81320494
220	0x3f6ed56a	0.93294394
221	0x3f81372a	1.009496
222	0x3f1541e5	0.5830367
223	0x3faf565e	1.3698232
224	0x401abae9	2.417658
225	0x3f01b68c	0.5066917
226	0x407435a9	3.8157752
227	0x3f9c9060	1.223156
228	0x3f89e858	1.0774031
229	0x4026ec2e	2.6081653
230	0x40001980	2.0015564
231	0x3fc45ac7	1.5340203
232	0x40419691	3.0248148
233	0x3f46e16a	0.77687705
234	0x40190477	2.3908975
235	0x3ec563f5	0.38552824
236	0x3f82360a	1.0172741
237	0x3fef88a5	1.8713576
238	0x3f4397a6	0.7640327
239	0x3f25464c	0.6456039
240	0x3ecaf583	0.39640436
241	0x4059f8f3	3.4058197
242	0x3f8eec57	1.1165875
243	0x3f272333	0.65288085
244	0x3fece964	1.8508725
245	0x4032e52a	2.795237
246	0x3f2cb161	0.6745816
247	0x405d5c4a	3.4587579
248	0x3eb018d0	0.3439393
249	0x400a81d4	2.164174
250	0x4017b126	2.3701873
251	0x400c1b11	2.189152
252	0x3f5d50f9	0.8645168
253	0x3fcf496f	1.6194285
254	0x3f4610a4	0.7736914
255	0x407c8d2c	3.9461164

fc1.weight f4 [128, 256]
0	0xbe73baf7	-0.2380179
1	0xbe6c2ad7	-0.23063217
2	0xbd969c06	-0.07353978
3	0xbf412deb	-0.7546069
4	0x3d92c205	0.071659125
5	0xbe75eb86	-0.24015626
6	0xbe0b4c19	-0.13603248
7	0xbe990d85	-0.29893127
8	0xbd455f80	-0.04818678
9	0xbe14902a	-0.14508119
10	0x3e50242f	0.20326303
11	0x3dea4354	0.11438623
12	0xbdad8dd6	-0.08474319
13	0xbb49625d	-0.0030728795
14	0xbf0311af	-0.5119886
15	0xbf2e5dfc	-0.6811216
16	0x3d76f8d1	0.060295884
17	0xbf3bb495	-0.7332242
18	0x3e2091d3	0.15680628
19	0x3b90baa1	0.004416779
20	0xbed20359	-0.4101818
21	0x3ea88dab	0.32920584
22	0xbe554762	-0.20828012
23	0xbdc75325	-0.097326554
24	0xbe317403	-0.17329411
25	0x3e3d2c45	0.18473919
26	0xbe28c262	-0.16480401
27	0xbeb85a56	-0.3600642
28	0xbe84052b	-0.25785193
29	0x3f3967f8	0.7242427
30	0x3eb01da1	0.34397605
31	0xbe180986	-0.14847383
32	0xbeabc33a	-0.33547384
33	0x3e75a607	0.23989116
34	0x3d1e6ed4	0.038679913
35	0xbe31ffe9	-0.17382778
36	0xbec8f389	-0.39248303
37	0x3dcf14c7	0.10111385
38	0xbe684720	-0.22683382
39	0x3d8b487b	0.06800934
40	0xbe4aa38b	-0.19788949
41	0xbe6051ad	-0.21906157
42	0xbe254488	-0.16139424
43	0x3c31e764	0.0108583905
44	0xbd887891	-0.06663621
45	0xbf29412d	-0.66115075
46	0xbee982d2	-0.4560762
47	0xbc0abe9d	-0.008468297
48	0x3db34484	0.08753303
49	0xbd3473f9	-0.044055913
50	0x3d88c1d1	0.066775925
51	0xbeaa93c0	-0.3331585
52	0x3e9eb53a	0.3099764
53	0xbd62cd12	-0.05537135
54	0xbedfc915	-0.437081
55	0xbf13497d	-0.5753401
56	0xbf17dc87	-0.59320873
57	0xbb6b92b0	-0.0035945587
58	0xbe5bd8e5	-0.21469457
59	0xbe133458	-0.14375436
60	0xbd336012	-0.04379279
61	0xbd8b06c4	-0.067884
62	0xbd88920a	-0.0666848
63	0xbc37332c	-0.011181634
64	0xbeb8a19e	-0.36060804
65	0xbde78831	-0.11305273
66	0x3e33988f	0.17538665
67	0x3d942851	0.07234252
68	0xbbfab736	-0.007651235
69	0x3d4e5728	0.050376087
70	0xbe8d518f	-0.27601287
71	0xbf71b46d	-0.9441593
72	0xbdd7899e	-0.10524295
73	0xbc91e1a2	-0.017807785
74	0xbc38711a	-0.011257434
75	0xbe8503fb	-0.259796
76	0xbc22c385	-0.009934311
77	0x3dac2f38	0.08407444
78	0x3ed3a6b5	0.41338125
79	0xbe0e4cb2	-0.13896444
80	0x3e0680b5	0.13135035
81	0x3ebc7545	0.3680822
82	0x3e034010	0.12817407
83	0xbdadc3ff	-0.08484649
84	0x3e4ce7af	0.20010255
85	0xbcc996ab	-0.024607977
86	0x3d1bfca2	0.038082726
87	0xbf320114	-0.69532895
88	0xbe31f7e0	-0.17379713
89	0xbed235ad	-0.41056576
90	0xbdbb712d	-0.09152446
91	0xbf28aba2	-0.6588689
92	0xbdbfc6e1	-0.09364105
93	0xbdceeee6	-0.1010416
94	0x3f250c27	0.6447167
95	0xbd19a09d	-0.03750669
96	0x3e203fa2	0.15649274
97	0x3e54b909	0.2077371
98	0xbf397f74	-0.72460103
99	0x3ec4fbca	0.3847335
100	0x3f06db11	0.5267802
101	0xbeff57a5	-0.49871555
102	0xbca5b23d	-0.020226592
103	0xbb548137	-0.003242565
104	0x3ea61997	0.32441399
105	0xbf239cba	-0.6391102
106	0xbeb9e3ba	-0.36306554
107	0xbee5b2a6	-0.4486286
108	0xbed6d50f	-0.41959426
109	0xbe2f35b9	-0.17110337
110	0xbe2fef98	-0.17181242
111	0xbf35f0b2	-0.71070397
112	0x3e37b71c	0.17940944
113	0xbf3562f9	-0.70854145
114	0x3e8c12d3	0.27358112
115	0xbf268062	-0.65039647
116	0xbe7145fc	-0.23561853
117	0xbf24ee1f	-0.64425844
118	0xbe8e6585	-0.27811828
119	0x3d161b63	0.03664721
120	0xbec611be	-0.3868541
121	0xbeace144	-0.33765614
122	0x3c8fabea	0.01753803
123	0xbef5cca2	-0.48007685
124	0x3df6aed5	0.12045065
125	0xbf6344a9	-0.8877664
126	0xbef080b3	-0.4697319
127	0x3e00a40f	0.12562583
128	0x3df12f97	0.11776655
129	0xbe894d7f	-0.26816937
130	0xbe689f37	-0.22716986
131	0xbe9578d0	-0.29193735
132	0x3e25030f	0.16114448
133	0x3c951589	0.018198745
134	0xbe8cc67c	-0.27495182
135	0x3b985caa	0.0046497183
136	0xbe4aee4d	-0.19817467
137	0x3e76cb86	0.24101076
138	0xbe581965	-0.21103437
139	0xbeda4b93	-0.42635784
140	0xbf1b6f49	-0.6071668
141	0xbd2c5743	-0.042075407
142	0x3d61a7b5	0.05509158
143	0xbeb63327	-0.355859
144	0xbef09f46	-0.46996516
145	0xbf192400	-0.59820557
146	0x3d769bb0	0.06020707
147	0xbe5c9882	-0.21542552
148	0xbdd29ff7	-0.10284417
149	0xbf1e965d	-0.61948186
150	0x3e671890	0.22567964
151	0x3e8e6401	0.27810672
152	0xba7407ce	-0.00093090243
153	0xbecbb56a	-0.39786845
154	0x3eb9ed96	0.36314076
155	0xbd9fada0	-0.07796788
156	0xbe86cb29	-0.26326874
157	0xbdc2aa09	-0.09505088
158	0x3f43ba76	0.7645639
159	0xbe14325d	-0.14472337
160	0x3e0a9dbd	0.13536735
161	0xbe15cbe3	-0.14628558
162	0xbd1ea0ff	-0.038727757
163	0x3e77e926	0.24210033
164	0xbea29c2e	-0.3175978
165	0xbeb426dd	-0.351859
166	0xbe87a975	-0.26496473
167	0xbef89373	-0.48549995
168	0x3d96427c	0.073369
169	0x3e77f783	0.24215512
170	0x3e491adb	0.19639151
171	0xbd881e5c	-0.066464156
172	0x3eb35c0a	0.35031158
173	0x3e52ba92	0.20578983
174	0x3cbc2ca8	0.022970513
175	0xbd4123b7	-0.0471532
176	0xbd6b5142	-0.05745054
177	0xbf1015f6	-0.5628351
178	0x3d9bb3bc	0.07602641
179	0xbea5074c	-0.3223213
180	0xbdb2c101	-0.08728219
181	0x3f21e097	0.6323332
182	0x3d331973	0.043725442
183	0x3e0424e5	0.12904699
184	0x3e497912	0.19675091
185	0xbeddd8fe	-0.43329614
186	0xbea9e907	-0.33185598
187	0xbe3292ad	-0.17438765
188	0xbe1b0dcc	-0.15141982
189	0xbe1a080f	-0.15042137
190	0xbe51791c	-0.20456356
191	0x3e867326	0.26259726
192	0x3e88528a	0.26625472
193	0xbe06efe9	-0.13177456
194	0x3d8ec812	0.06971754
195	0xbf8e4b2a	-1.1116688
196	0x3e38eb5e	0.18058535
197	0xbecb9f7b	-0.3977011
198	0xbd7a6f86	-0.061141513
199	0x3d996637	0.07490199
200	0xbe4368c7	-0.19082938
201	0x3ed1ccf7	0.40976688
202	0xbc896415	-0.016771356
203	0xbf62cd20	-0.88594246
204	0x3cfc7386	0.030816805
205	0xbdb993db	-0.09061404
206	0x3e630616	0.2217029
207	0xbe6357d8	-0.22201478
208	0xbe8e1119	-0.2774742
209	0xbe67e7e8	-0.22647059
210	0xbe44500e	-0.19171163
211	0x3bc286f8	0.0059364997
212	0x3b2550b3	0.0025225102
213	0xbdd5ce51	-0.10439742
214	0xbdf37b44	-0.118887454
215	0xbe9b4c0f	-0.30331466
216	0x3d1ece2e	0.038770847
217	0xbe8dcdeb	-0.27696165
218	0x3e11b382	0.14228633
219	0xbe2de115	-0.16980393
220	0xbed3d690	-0.41374636
221	0xbe746302	-0.23865893
222	0x3e65b712	0.22433117
223	0xbe36332d	-0.1779296
224	0xbea28ed8	-0.31749606
225	0xbec7a7b4	-0.38995135
226	0xbcab9d77	-0.020949109
227	0xbee3345b	-0.44375882
228	0x3e1589bd	0.14603324
229	0xbef08037	-0.4697282
230	0x3d66a146	0.056306146
231	0x3dd46b97	0.10372084
232	0xbedfe4cd	-0.4372925
233	0xbdf94676	-0.121716425
234	0x3df94ad0	0.121724725
235	0xbd80384d	-0.062607385
236	0xbecc0855	-0.39850107
237	0xbd9065a2	-0.07050635
238	0x3d4ba9b9	0.049722407
239	0x3f314384	0.69243646
240	0x3e8bb59b	0.2728699
241	0x3e088a88	0.13334095
242	0x3e4c85c6	0.19972906
243	0xbee5d388	-0.44887948
244	0xbd838cac	-0.064233154
245	0xbebfe586	-0.374798
246	0xbd97832a	-0.073980644
247	0x3e7078b6	0.23483548
248	0xbd3ea9f6	-0.046548806
249	0xbe08fe1a	-0.13378182
250	0xbf01e935	-0.5074647
251	0x3d850a3d	0.064960934
252	0xbf7e7cf3	-0.9940941
253	0xbf19d269	-0.60086685
254	0x3d6b9202	0.05751229
255	0xbe1231b9	-0.1427678
